TP/best_model/policy.pth (torch, 284146 bytes, 11 tensors)

mlp_extractor.policy_net.0.weight f4 [16, 12]
000000 b6 8a 1e 3f e5 7a a0 be 38 7e d8 bd 28 75 ec bd
       0.61930406 -0.3134376 -0.10570949 -0.11545783
000010 8e 6f 84 be 82 d3 9f 3e a1 10 a0 3e 1f 13 1b 3f
       -0.2586636 0.31216055 0.31262687 0.6057605
000020 5c 53 63 3e 96 25 07 bf b6 a4 14 bd 7b 33 ef 3d
       0.22199768 -0.52791727 -0.036289893 0.11679741
000030 92 60 04 3f ec 9f 0e be 51 7d 07 be 86 e8 66 3e
       0.51709855 -0.13928193 -0.13231398 0.22549638
000040 cd 93 b5 be 1a 99 20 bd 2a a0 2c bf 44 aa c7 3d
       -0.35464326 -0.03920851 -0.6743189 0.097492725
000050 14 98 52 be 05 11 e7 be 8f be 60 3e 3e b0 24 3c
       -0.20565826 -0.45130172 0.21947692 0.010051785
000060 6d 10 10 3f 18 02 81 3c 95 4b a3 3e bd 04 95 3e
       0.56275064 0.015748069 0.31893602 0.29105178
000070 a3 d5 a0 be 99 b3 10 bf c5 c3 05 3e 82 af f9 bd
       -0.31412992 -0.56524044 0.13062961 -0.121916786
000080 70 0a 1a 3f 8a 96 29 3f 3c 1a 9f 3e 4b 59 09 3e
       0.60172176 0.6624533 0.31074703 0.13412969
000090 52 bd ac be e4 90 02 3f 03 4b a7 3e 16 53 1f 3f
       -0.3373819 0.51002336 0.32674417 0.62236154
0000a0 0c 46 96 be 67 e5 fd 3d 61 0e 4f bc 6c 5f f9 bb
       -0.29350317 0.12397271 -0.012637706 -0.007610252
0000b0 02 de db be 94 fb 91 bd 7d 4e 54 3e 06 80 c8 bb
       -0.42942816 -0.07128063 0.20733066 -0.006118777
0000c0 4a d8 9a be 3a c0 14 be 70 b6 11 bf 2b a0 76 3e
       -0.3024314 -0.14526454 -0.56919 0.24084537
0000d0 a0 bc c8 be f5 e3 c1 3d a9 cc 13 3f 44 e4 ae 3e
       -0.3920641 0.094673075 0.5773416 0.34158528
0000e0 db 28 a8 3d 56 15 e8 3e 0c f2 17 be 8e d9 6a bd
       0.082109176 0.45328778 -0.14838427 -0.057336383
0000f0 a6 e0 17 3d 75 6b 07 3e 09 d7 cf bd 34 ae dc 3e
       0.037079476 0.13224585 -0.101484366 0.43101656
000100 00 5d 6b 3f 0a 12 3e be 67 2b 4b 3e e4 64 45 3e
       0.9193878 -0.18561569 0.19840775 0.19276768
000110 c2 6a de 3e af 63 ad be 56 12 2a 3e 69 5b 2a bf
       0.43440825 -0.33865115 0.16608557 -0.6654573
000120 c5 cb a3 bd 41 2e 8b 3d a1 7b a3 3e b2 0d 7c be
       -0.0799785 0.067959316 0.3193026 -0.246146
000130 01 f8 af be 80 9a 08 bf 0f c3 ab 3d 46 dd 85 3d
       -0.343689 -0.5336075 0.08386814 0.06536345
000140 2b 83 5c be db 15 74 be 63 d6 10 3f 82 b0 13 bf
       -0.21534412 -0.23836462 0.5657713 -0.57691205
000150 6d 0d 7e be 43 7b c5 be e6 3a fa 3c 59 8e dd 3d
       -0.24809809 -0.38570604 0.030545663 0.10818166
000160 df ea b8 3e 05 93 3a bf 10 95 02 bf 3b c1 0e 3f
       0.36116692 -0.72880584 -0.510087 0.55763596
000170 56 3a 83 be 96 e5 40 3e 24 89 e3 be e3 92 14 3e
       -0.25630444 0.1883758 -0.44440567 0.14509158
000180 1d 48 0b bf 6a 78 22 3e 9f 5e 88 3e be fd b3 bd
       -0.5440691 0.15866247 0.2663469 -0.08788632
000190 50 73 ef 3d 92 ac 86 be df 26 2d 3e c5 8e ba 3d
       0.11691916 -0.26303536 0.1690936 0.091092624
0001a0 92 55 fb 3e b4 0e 11 bf a6 fc 80 3e 95 ef 5e 3f
       0.49088722 -0.5666306 0.25192755 0.87084323
0001b0 d8 77 ea 3e ae d1 f3 3d 6b 34 1f bc 46 1b 07 3f
       0.4579456 0.119052276 -0.009717087 0.5277599
0001c0 ed ba ff 3e 92 2f d9 3d 44 5d 14 3e d0 94 e4 3d
       0.499473 0.106047764 0.14488703 0.11161196
0001d0 da ba 04 bf 72 13 56 3e 52 29 97 3e e1 7b 12 3f
       -0.5184761 0.20905855 0.29523712 0.57220274
0001e0 c8 cf 61 3d 4c 59 50 3e 46 0e fd 3e cf 91 46 3e
       0.055129796 0.20346564 0.49424952 0.19391559
0001f0 49 61 a1 be 9c dc 5e be fd 17 d9 3e 5c 57 11 3f
       -0.31519535 -0.21763843 0.42401114 0.56773925
000200 80 12 6a be a2 fa 25 be a5 f1 0b bf 2d 4e 15 be
       -0.2285862 -0.1620889 -0.54665595 -0.14580603
000210 99 73 19 3e 60 6f af be f8 03 ee 3c bf 09 e1 be
       0.14985503 -0.3426466 0.029054627 -0.43952748
000220 9b 1b 3a 3e 63 fc ce be 16 44 a1 3e 2a e8 ac bd
       0.18174593 -0.4042693 0.31497258 -0.08442719
000230 6f 23 4c be 73 d3 04 bd aa 83 13 3e 59 ca 59 3e
       -0.19935392 -0.032428216 0.14405695 0.21268596
000240 25 ff ab 3e 53 a2 73 3f 52 13 07 bf b6 41 35 be
       0.33593097 0.9516956 -0.52763855 -0.17700848
000250 8f 5d d8 bd b2 8e d3 be e4 b4 1b be 5c ec f0 bd
       -0.1056472 -0.41319805 -0.15205723 -0.11763832
000260 a2 40 17 3e ce 50 00 be 49 ad 05 bf f1 db e2 3d
       0.14770749 -0.12530825 -0.5221754 0.11077107
000270 da c7 1b 3e 67 a2 cd be c2 8d 14 3e 5b 0c d5 3e
       0.15212956 -0.40162966 0.14507201 0.4161099
000280 0d 41 b0 ba c7 c1 82 be 73 57 de 3e 63 bf 57 bf
       -0.0013447121 -0.25538465 0.43426093 -0.8427641
000290 e5 e5 13 be 77 10 e0 be 58 39 0b bf b1 3f 31 3c
       -0.14443167 -0.43762562 -0.54384375 0.010818408
0002a0 c3 84 86 3e 0a cd 41 3e 55 5b 56 3f 81 c6 df be
       0.26273164 0.18925872 0.8373311 -0.43706134
0002b0 b1 41 ba 3e 17 1b b8 3e db d9 3d bd 4c f3 78 3c
       0.36378244 0.35958168 -0.04635034 0.015194725
0002c0 09 7d 83 3d 21 f6 7e 3e f4 2b be be 3d 9a 87 bd
       0.06420333 0.24898578 -0.3714291 -0.066212155
0002d0 7f 42 0e 3e 80 f7 86 3e 64 bd 91 be 09 3f f8 be
       0.13892554 0.26360703 -0.28464806 -0.48485592
0002e0 98 f8 2d 3e e5 f6 56 be 27 d4 f7 3e 41 88 a0 3b
       0.16989362 -0.2099262 0.48404047 0.004899055
0002f0 4f c2 28 bf ee 31 2f 3d de 74 64 3e 40 9f f9 3c
       -0.6592149 0.042772226 0.22310206 0.030471444

mlp_extractor.policy_net.0.bias f4 [16]
000000 f0 a9 38 bc 43 92 2e 3b 68 3c a3 bb 39 f0 ae bc
       -0.011270985 0.0026637472 -0.004981566 -0.021354781
000010 56 86 97 ba 63 f7 78 bc 01 3e 78 3c f5 8e 22 3a
       -0.0011560421 -0.0151957 0.015151502 0.0006201112
000020 7a ff a2 bc e8 a7 ae bc 32 dd b3 bc 22 a4 0b b9
       -0.019897211 -0.021320298 -0.02195606 -0.00013317217
000030 12 97 1b bb 55 27 8b 3c 68 82 2a bc d2 98 af bc
       -0.0023741168 0.016986528 -0.010407068 -0.021435175

mlp_extractor.policy_net.2.weight f4 [16, 16]
000000 9c 54 fe 3e 08 de 34 3e e8 d8 ca be d1 85 6b be
       0.49673927 0.17662823 -0.3961861 -0.23000266
000010 ea 20 30 be e5 0a 7b be b9 42 42 be 53 03 ba 3e
       -0.17200056 -0.24515875 -0.18970765 0.3633066
000020 ac 22 96 3e d8 ce 4a bf 75 6d 15 3f 9b 25 eb bd
       0.29323328 -0.7922187 0.58370143 -0.11481782
000030 ef 1d ba be de 8d 37 be a2 6d d4 3d f6 2b 01 3e
       -0.36350963 -0.17925212 0.10372473 0.12614426
000040 e7 cc 92 3d d3 ac ca 3e 0e b1 54 be 69 2d da 3e
       0.07167988 0.3958498 -0.20770666 0.4261277
000050 d1 44 08 bf da 9e af be 63 ab 15 bf 59 b4 70 bd
       -0.53230006 -0.34300882 -0.5846464 -0.058765743
000060 66 48 1d 3d 74 f0 74 bd cd 7b 2d bf de 50 15 bd
       0.038399123 -0.059799626 -0.6776703 -0.036454074
000070 66 1e 41 3e 51 72 3f 3e 6f aa 30 3e 52 66 0d 3f
       0.18859252 0.18695952 0.17252515 0.55234253
000080 cf 74 43 3f ea e6 df bb 4a 63 a8 3e ce 66 2a bc
       0.7635011 -0.006832947 0.32888252 -0.010400487
000090 c9 2b 0b bf 91 b2 59 3e 0d 30 a4 3e 3e 97 94 3e
       -0.54363686 0.21259524 0.3206791 0.2902164
0000a0 4a f8 e4 be 28 21 ab 3e 95 a7 50 be 36 a1 de be
       -0.4472068 0.33423734 -0.20376427 -0.4348237
0000b0 e8 c7 ce bd 5f 77 b3 be 4a c5 a9 3e 55 18 25 be
       -0.10096723 -0.3505201 0.33158332 -0.16122563
0000c0 0f 8a 22 bd 95 05 4d 3d 74 8a e8 3e 38 3c 28 bf
       -0.039682444 0.05005415 0.4541813 -0.65716887
0000d0 9d 84 2c bd e7 41 0f 3f d4 64 80 be a9 d5 05 be
       -0.042118657 0.55959934 -0.25076926 -0.13069786
0000e0 cd 94 ee 3e ae 6b e6 3d e6 05 24 be 26 2e 37 3e
       0.465979 0.11251007 -0.16017875 0.17888698
0000f0 64 8f 78 be 44 e9 e3 be 83 e5 11 3d b9 c2 23 3f
       -0.24273449 -0.44513905 0.03561927 0.63969
000100 11 04 24 be 16 e3 13 3f be 70 4c 3f 76 00 b1 bd
       -0.16017176 0.5776838 0.7985953 -0.08642666
000110 c2 f4 1a 3e 33 29 d9 be 04 07 03 bc 0b 80 04 3f
       0.1513243 -0.42414245 -0.007997278 0.5175788
000120 6c 08 17 3d de 58 07 3e 99 7b dd 3e 58 01 3a be
       0.036873266 0.13217494 0.4325836 -0.18164575
000130 02 40 d1 3e 69 76 a8 3e fc d2 5e 3d 41 fe 58 3e
       0.40869147 0.3290284 0.05440043 0.2119074
000140 ac a9 a0 3e 31 e7 8b 3e 6a da d4 be 46 9e a5 3e
       0.3137945 0.27324823 -0.41572887 0.32347316
000150 e6 37 dc 3d 5d ca 05 3e c2 50 fb 3d 91 ad 6c 3e
       0.10752849 0.13065477 0.12271263 0.23113085
000160 29 d9 1c 3f 67 f6 36 3f f0 ea 7e 3e da 99 12 3f
       0.6126886 0.7146973 0.24894309 0.5726601
000170 6b 98 24 3e 95 51 b3 bd 3a e0 cc 3e 93 1b 8a bd
       0.16073768 -0.08755795 0.4001482 -0.067435406
000180 90 53 da 3e 52 fd 81 3e 54 fe b1 be 43 07 c3 be
       0.42641878 0.2538858 -0.3476435 -0.38091478
000190 29 bb 07 3f d0 b7 b9 3e 56 f3 9c bd 88 e9 56 be
       0.5301996 0.3627305 -0.076636 -0.20987523
0001a0 2d 77 7c be 5b 8a 7b be d3 b8 af bd b6 c7 65 be
       -0.24654837 -0.24564497 -0.08580174 -0.22439465
0001b0 7c 90 6d 3f 16 12 b9 3d ad 40 ef 3d 07 c1 c8 3d
       0.9279859 0.09036653 0.11682258 0.09802442
0001c0 c9 77 79 be 5a 54 9e be 53 67 07 bf a0 62 41 bf
       -0.243621 -0.3092373 -0.52892035 -0.75541115
0001d0 44 4e 9d be df 56 8d be f3 33 4d 3d 22 ff 12 3f
       -0.30723774 -0.2760534 0.05009837 0.5742055
0001e0 8d 84 89 3e e2 f0 ef 3e 1f 42 8d be 1d c8 95 be
       0.2685894 0.46863467 -0.2758951 -0.29254237
0001f0 d6 e5 2f 3e 0d 31 75 3d da dd 82 be 3e ad 7e bd
       0.17177519 0.05986123 -0.25559884 -0.062176935
000200 da 2c 1f be 78 92 39 3e 5e 43 d0 bd f7 53 33 bc
       -0.15544453 0.1812228 -0.10169099 -0.010945312
000210 23 28 c8 be 4a bf a5 3e 65 cf 3e bf 28 c3 c9 be
       -0.39093122 0.32372504 -0.7453521 -0.39406705
000220 a0 9e 82 3b 7e dd dc 3e 5b b6 1c 3f af fb fa be
       0.0039861947 0.43137735 0.6121575 -0.49020144
000230 31 39 00 bb 23 53 9c 3c fd 33 09 be 6b 81 be be
       -0.0019565339 0.019082611 -0.13398738 -0.37208113
000240 f9 c6 c0 be 70 bd e5 3c ee 35 18 3d 22 e0 77 be
       -0.37651804 0.028044432 0.037160806 -0.24206594
000250 4d 20 2e be 7a f9 c8 3e ef d0 f2 be cd 9e 0a 3f
       -0.1700451 0.39252836 -0.4742503 0.5414856
000260 32 d3 a9 be e6 22 7b be 54 f7 20 be 01 fc 06 3f
       -0.33168942 -0.24525031 -0.15719348 0.5272828
000270 90 ae 50 3b a3 8e 10 3d 25 46 15 3f 7c 85 0f bf
       0.0031842329 0.03529228 0.5831016 -0.56063056
000280 c0 35 c8 bd b1 ab 4d bc c1 46 a0 be ee 83 5e be
       -0.09775877 -0.012553141 -0.3130398 -0.21730015
000290 3e ce a8 be dc ff 11 bd dc a7 43 3e 40 c5 d8 bd
       -0.3296985 -0.035644397 0.19107002 -0.105844975
0002a0 43 b7 4d bf fb 32 74 3e 12 0c 09 3f 22 ff f6 3e
       -0.8035776 0.23847573 0.5353404 0.48241526
0002b0 80 d3 a9 bc 2c 66 36 3e d0 a2 c5 3b cf ac 2a 3f
       -0.020730734 0.17812413 0.0060313717 0.66669935
0002c0 bc fb d5 be 03 77 e7 3e ff 9b cc bd 2c d6 b7 be
       -0.4179362 0.45207986 -0.099906914 -0.35905588
0002d0 6a 55 ab be 0d fb 17 be f0 a0 1b 3f 76 cb 13 bf
       -0.33463603 -0.14841862 0.60792446 -0.5773233
0002e0 2d d0 6a 3e 39 1c f5 bd b1 2e 55 bd fc a3 43 be
       0.22930975 -0.11968274 -0.05204648 -0.19105524
0002f0 af 05 c0 bd 25 e1 91 3d 6b 0b 35 3f 26 9e 4b be
       -0.09376084 0.07123021 0.7072055 -0.19884548
000300 03 72 b1 be 42 14 50 3f ab 1f bc be 44 41 2b 3e
       -0.34657297 0.8128091 -0.3674291 0.16724116
000310 48 17 02 3f c5 a2 eb 3d 6d 43 97 3d d3 9d 90 3e
       0.50816774 0.11505655 0.07385907 0.2824541
000320 58 11 c3 be ac 2a 01 3e f8 aa 42 be 62 ef 9d be
       -0.3809917 0.12613934 -0.19010532 -0.30846697
000330 ac a7 d5 be 67 4d f4 be f4 fe 70 be 51 d8 d2 3d
       -0.41729486 -0.47715303 -0.23534757 0.10295165
000340 30 77 d2 be a5 6e 27 bf 9b 42 08 be 4d 2a a2 3e
       -0.41106558 -0.65403205 -0.13306658 0.31672898
000350 03 06 75 3e 17 d9 ce 3d 24 fe c3 bd 7c db 7d 3e
       0.23928075 0.101 -0.09569958 0.24790758
000360 23 43 e8 3c 78 66 67 3d cb e8 51 3e 43 7e 0d bf
       0.028352326 0.056494206 0.2049896 -0.55270785
000370 53 89 2f 3d d8 40 0f be 02 76 45 3f 8c 5a e9 3e
       0.042855572 -0.1398958 0.7713319 0.45576894
000380 86 74 92 3e af e0 b2 bd 58 20 ba 3d ed 4d c0 be
       0.28604525 -0.08734261 0.090882 -0.37559453
000390 87 d8 0a 3f d8 48 54 bf e4 5f eb be 05 f4 c0 be
       0.54236645 -0.8292365 -0.45971596 -0.37686172
0003a0 07 ee 90 be 57 c8 a0 3e 70 f6 c6 bd 0b 5b e3 3d
       -0.283066 0.31402847 -0.09714973 0.111013494
0003b0 8c 6b 87 be d9 19 84 be aa 31 b3 3e 03 5e 2f be
       -0.2644924 -0.2580097 0.34998828 -0.17125706
0003c0 62 4e 98 be e0 65 25 bd 6d 7e 45 3d 95 7d 1d 3e
       -0.297473 -0.04038036 0.048216272 0.15379937
0003d0 82 e2 98 be f7 38 a9 be 38 4f 63 3d 7b a8 7a bd
       -0.29860312 -0.33051273 0.05549547 -0.06119583
0003e0 d2 ac 23 bd 69 5c 35 be 64 e3 1f 3e dc b3 48 3e
       -0.039959736 -0.17711033 0.15614086 0.19599861
0003f0 31 08 2d 3f c2 05 86 bf 3c 1a 28 be 1f ee b5 bd
       0.67590624 -1.0470507 -0.16416258 -0.088833086

mlp_extractor.policy_net.2.bias f4 [16]
000000 ca 3a 26 bc 89 86 36 bc b8 01 bb 3b c7 29 09 bc
       -0.010145852 -0.011140474 0.005706992 -0.008371777
000010 b0 e4 0d bc e0 eb b8 bc 63 d9 b9 bb f6 b8 3e 3c
       -0.00866048 -0.022573411 -0.0056716665 0.011640778
000020 cf 30 12 bb bb 7e 72 3c 92 61 06 bc 86 c6 81 3c
       -0.0022306924 0.014800723 -0.0082019735 0.015841734
000030 8e 50 7f bb 82 56 30 bc 26 03 65 bb e0 4d 8b bc
       -0.0038957926 -0.010762813 -0.0034944504 -0.017004907

mlp_extractor.value_net.0.weight f4 [256, 12]
000000 67 12 56 bd 0e be ba bd f8 7a 83 3e fc 61 3b be
       -0.052263644 -0.09118281 0.25679755 -0.18299097
000010 1c 14 20 3e e2 68 e4 3d 28 ef d8 bd 0c 49 5e bd
       0.15632671 0.11152817 -0.105924904 -0.05426888
000020 ae 51 32 bc 58 8e ec bd fa 2e 40 3d 2b 4f 9c bb
       -0.010883732 -0.115505874 0.0469198 -0.0047701797
000030 50 bd ff 3d bb 1a 53 bd d3 e2 93 3d 81 14 41 3e
       0.1248728 -0.051539164 0.07220998 0.18855478
000040 cd 58 ff bc c4 c3 d8 3c 52 84 1e 3e 00 55 b0 3d
       -0.031170273 0.026460536 0.15480164 0.086099625
000050 8c 07 d5 bd e1 eb b5 3d 85 6f 94 3c 82 b8 8e bc
       -0.1040183 0.08882881 0.018119583 -0.017421965
000060 2a db 08 3e 85 8f df bd 8d 32 de bd 5e 03 0c be
       0.13364854 -0.10916046 -0.108494855 -0.1367316
000070 16 ac c6 3d 1b 47 08 be 58 6d 83 bd be ac e3 bc
       0.097007915 -0.13308375 -0.0641734 -0.02779233
000080 23 86 27 3d 5e fb da bd 0b c6 88 3c 7f c9 0f 3d
       0.040899407 -0.10692476 0.016695997 0.03510427
000090 74 7b 26 be 64 7b ff 3d da 6d 07 bd 27 10 17 3c
       -0.16258031 0.12474707 -0.033063747 0.00922016
0000a0 13 32 1b 3e c2 c2 0f 3e 68 e8 80 3d b0 50 f5 3d
       0.1515582 0.14039138 0.06294328 0.119782805
0000b0 4b e0 a4 bd 21 0b a0 bd 3b 2c 1c be 42 26 ce bd
       -0.08050593 -0.07814623 -0.15251248 -0.10065891
0000c0 64 38 66 3e a1 1b a1 bb 24 9b c3 bd d1 ba d6 3d
       0.22482449 -0.0049166237 -0.09551075 0.10484851
0000d0 73 23 00 be 90 d4 c2 bd 2a cc 0d 3d 26 93 76 3c
       -0.12513523 -0.09513199 0.034618534 0.015049731
0000e0 01 43 7a 3c fa 28 0c 3e ee 11 2d bd 86 f8 b8 3d
       0.015274764 0.13687506 -0.042253427 0.09031777
0000f0 50 a2 54 3e 37 5c b9 3d 47 91 47 be a2 3d d0 3d
       0.20765042 0.09050792 -0.19489013 0.101680055
000100 d1 d4 f6 bd bc 21 a5 3c e5 a4 2c 3d 61 82 e5 3c
       -0.1205231 0.020157687 0.042149443 0.028016271
000110 0c dc e1 3d 89 f1 77 3e ef 66 c9 bd 8d a3 5d bd
       0.11028299 0.24213232 -0.09834086 -0.054111052
000120 20 69 14 be 3c 98 04 bd 2e 8d 4c 3d 45 b2 83 be
       -0.14493227 -0.032371745 0.049939327 -0.25721946
000130 c8 6b 2d 3d 7e 61 c3 bc 3a 3f 11 be a8 33 b6 3d
       0.042339116 -0.023850199 -0.14184275 0.088965714
000140 51 52 8f bd 07 c5 86 be 5b 48 64 3d f0 b0 4d 3d
       -0.069981225 -0.26322195 0.055733066 0.05021757
000150 cc 3b cc 3d ac b5 f0 bc db 3b c8 3c d6 b2 72 3e
       0.09972343 -0.029383503 0.024442604 0.23701033
000160 c0 41 f9 bd 73 74 39 be 0c bd 82 3e 2e bd 10 3d
       -0.12170744 -0.18110828 0.25534856 0.035336666
000170 82 7a bc bc ad 62 01 3e 5a b7 9e bd 88 ce b7 3b
       -0.023007635 0.12635298 -0.07749815 0.0056093372
000180 25 61 84 bd a1 49 7a 3c 25 1b 8a bd 0f c2 94 be
       -0.06463841 0.015276344 -0.06743459 -0.29054305
000190 26 47 f1 bc b4 5d 01 3b 45 14 80 be b6 09 1b bd
       -0.029452872 0.001973969 -0.25015464 -0.037851058
0001a0 0f 81 15 bd bd ca 03 be 44 8a 3a 3d 57 48 46 3e
       -0.036500033 -0.12870307 0.045542017 0.19363533
0001b0 ce f2 4a 3e df 24 4a 3d 0e 7a f5 bd db 53 70 3e
       0.19819185 0.04935157 -0.11986171 0.23469488
0001c0 4c d9 16 3d f6 c0 36 3e 7b 97 29 3d aa 29 4b bc
       0.036828324 0.17847046 0.04140423 -0.01240007
0001d0 3e 55 2d bd 50 41 88 3e ab f2 24 be e7 74 2a 3c
       -0.04231762 0.2661233 -0.16108195 0.010403848
0001e0 24 f6 01 be f5 67 98 3d 97 38 18 bc c3 a4 4d be
       -0.12691551 0.07441703 -0.009290836 -0.20082383
0001f0 57 5a 74 3d 11 72 68 bd 3f 2a 46 be 4e 2c e8 3d
       0.059656467 -0.056749407 -0.19352053 0.113365754
000200 12 bc 52 3d e2 3c 51 bd 31 df ae 3d 38 c1 2b be
       0.05144889 -0.051083453 0.08538664 -0.16772926
000210 b2 99 b6 be bb 4f 92 bd ba ea 04 be 2c 58 39 be
       -0.35664135 -0.07144114 -0.12980166 -0.18100041
000220 8b f7 c7 3d 0b a5 30 bd b1 dc f0 bc ac a1 9b bd
       0.09764012 -0.043126147 -0.029402109 -0.07599196
000230 ee e0 3a 3d dd b8 bb be 69 9d 6d b9 cd 51 e2 bd
       0.045624666 -0.36664477 -0.00022660721 -0.110507585
000240 9f 33 b2 3e c0 00 d1 3a e5 3d 2e 3c bc 5c 28 3e
       0.3480501 0.0015945658 0.010634874 0.16441625
000250 c4 bc 7d bc 04 ad 7a bd 40 d6 89 3d 7d 35 8f be
       -0.0154869 -0.061200157 0.06730318 -0.27970496
000260 71 a9 0a 3e 72 3b d3 3d e9 43 e3 3b 00 37 17 bd
       0.135412 0.10314073 0.0069355858 -0.036917686
000270 8a d8 f2 3c 69 60 61 be 12 a0 9b 3d ca 4a be 3d
       0.02964427 -0.22009434 0.0759889 0.09291609
000280 65 1b 0c be f4 77 55 3e c6 09 3e 3e 5c ed 8c bc
       -0.13682325 0.2084654 0.18558416 -0.017203026
000290 39 af 3b 3d 53 ae a4 3e 9a 5a a7 bd de c3 0c be
       0.045821402 0.3216425 -0.08171578 -0.13746592
0002a0 09 bb bc be 29 49 b4 3c 6d 2e 0b 3d 58 68 94 be
       -0.36861446 0.022007542 0.033979822 -0.28985858
0002b0 72 c3 a3 3d cd 4c d1 3d f0 2b 04 be ed ac 30 3d
       0.079962626 0.10219727 -0.12907386 0.043133665
0002c0 3f 7f c0 bd 80 53 95 be 6b 1d a7 3c 31 46 73 bd
       -0.0939927 -0.29165268 0.02039977 -0.05939311
0002d0 0d 03 35 be cd 55 f3 bc e7 dc c2 3d 96 fd 3b be
       -0.17676945 -0.029703999 0.0951479 -0.18358454
0002e0 1c c5 7c bd 3c d3 ed 3c 7f c0 77 be 55 2c 92 3e
       -0.061711416 0.029031388 -0.24194525 0.28549448
0002f0 d7 21 9f 3d 8a de 18 be 0e 2d 56 bd 8c 95 b2 3d
       0.07770126 -0.14928642 -0.05228906 0.0871993
000300 86 2c 72 be e6 c1 a1 3d 20 41 a1 3b f0 f4 95 be
       -0.23649797 0.07898311 0.0049210936 -0.29288435
000310 f1 50 e6 3d 4f 79 35 bd 4f df c6 be 67 10 c8 bd
       0.11245907 -0.044305142 -0.38842246 -0.097687535
000320 ac 63 1b 3d ee 25 29 be 80 1c 89 bc a3 15 da bd
       0.03793685 -0.16518375 -0.016737223 -0.10648658
000330 03 16 9c be f5 e2 c2 3c 4a a0 03 3e 57 1d 5e be
       -0.30485544 0.023789862 0.12854114 -0.2169088
000340 93 18 90 3d 95 1c 9d 3d dd 8b 10 be 1a 79 e3 3d
       0.07035937 0.07671467 -0.14115854 0.11107083
000350 d3 24 0a b9 42 58 16 be 63 69 44 3c 2f f1 c3 3d
       -0.00013174424 -0.14682105 0.011988017 0.095674865
000360 d0 48 0a be d1 3c 5a bd 09 f8 84 3d 58 ee e8 bd
       -0.13504338 -0.053280655 0.064926215 -0.113735855
000370 95 14 4c bd d9 36 67 bd 5b 4d 8e be f5 39 95 bd
       -0.049824316 -0.05644879 -0.27793393 -0.07286445
000380 2f 0e 06 be 00 5c 04 be 04 57 b3 bd 8b 59 de bb
       -0.13091348 -0.1292572 -0.08756831 -0.0067855767
000390 5e 80 0b 3e 6a ef 60 3b af 1c 0d 3d 46 8e 4e 3d
       0.13623187 0.003432239 0.034451183 0.05042865
0003a0 0d 65 27 bd e7 61 46 3d 07 52 18 3e 2c c8 17 bd
       -0.040867854 0.04843321 0.14875041 -0.037056133
0003b0 c9 7a 36 bc 62 3c dc 3d d9 52 22 bd 5c bb 0a bb
       -0.011137673 0.107537046 -0.03962979 -0.0021168804
0003c0 f5 75 fe bc 3d ea d3 3c 2d 19 e9 3c 5f 76 70 be
       -0.031062106 0.02586853 0.028454388 -0.23482655
0003d0 a5 0c 3e bd 35 cd 86 be 75 30 8d 3d 6c af b7 3d
       -0.046398778 -0.26328436 0.06894008 0.08969006
0003e0 08 cd 68 bd ad 3b b8 3d 89 43 2d bd 44 42 33 3d
       -0.056836158 0.08995757 -0.042300735 0.043764368
0003f0 ae 53 3f 3e b2 7c 54 bd 71 6f 0f bd fe a7 6b 3e
       0.18684265 -0.05187673 -0.03501839 0.23013303

mlp_extractor.value_net.0.bias f4 [256]
000000 3d 5a 13 bc 43 5a 12 3c d7 bf 0f bd 75 4a 04 bd
       -0.008993682 0.008932653 -0.035095062 -0.03229757
000010 7d 24 82 3c cc e2 14 bd fe b1 e9 bc eb 0b e7 3c
       0.01588654 -0.036349103 -0.028527256 0.028203925
000020 77 39 b9 bc 7e 8a 8b 3c 2a 58 c7 bc 0d 98 45 bc
       -0.02261041 0.017033812 -0.024334032 -0.0120601775
000030 74 2e 47 3c d1 16 ba 3c 80 c6 af bc c9 e0 e7 bc
       0.012157071 0.022715958 -0.021456957 -0.028305428
000040 6a 69 3a bc 4f bf fe bc 9b 04 25 3d e9 58 b6 3c
       -0.011377672 -0.031097082 0.040287595 0.022259193
000050 28 65 d2 bc 30 75 c4 3c 11 4f f7 3c 83 ac b2 3c
       -0.025683 0.02398166 0.030189069 0.021810776
000060 24 55 fb bc cf 74 28 bd 00 4a d2 3c d4 f3 a7 3c
       -0.030680247 -0.041127022 0.025670052 0.020502008
000070 d9 e9 66 3c 59 de 14 3d 5b d5 d8 3c 6b 84 d3 3c
       0.01409384 0.03634486 0.026468923 0.025819978
000080 aa c6 c9 3c d4 9e 29 bd 63 30 d8 3c 18 0f 41 bb
       0.024630863 -0.041411236 0.02639026 -0.002945846
000090 63 f4 00 3d 00 c7 d4 bc 74 bd bd 3c 80 56 a3 bc
       0.031483065 -0.025973797 0.023161627 -0.019938707
0000a0 a1 43 c5 3c 82 b4 c4 3c 70 cb e4 bc e5 84 46 3c
       0.0240801 0.024011854 -0.027929038 0.012116645
0000b0 5f b0 c7 bc bd 26 c8 3c 8e 4e 68 bc 04 8b c1 bc
       -0.024376092 0.024432534 -0.014178885 -0.023625858
0000c0 7c e1 50 3c b3 6c 01 3d 54 19 9b 3c 7a 1a 95 39
       0.012749072 0.031597804 0.018932976 0.0002843922
0000d0 a8 87 7c bb bb 55 f5 3a 0c 31 90 3c 4a 2d 41 bb
       -0.0038533006 0.0018717566 0.017601512 -0.0029476457
0000e0 47 a1 87 bc 07 06 da bc 14 21 3f bc da 1f bb bc
       -0.016556395 -0.026614202 -0.011665601 -0.022842336
0000f0 1b 70 06 3c 1a e7 8b 3c c3 02 63 3c f5 5e a0 bc
       0.008205439 0.017077971 0.013855639 -0.019576529
000100 92 c1 2c bc 5b c7 d4 3b cf ec bc bc ad 24 87 bc
       -0.010544198 0.0064934916 -0.023062138 -0.01649698
000110 61 7e d8 3c e0 9a ca bb 03 0d b2 bc f9 d3 fa 3b
       0.02642745 -0.0061830133 -0.02173472 0.0076546636
000120 eb 5c 9a 3a 3e 56 cc 3b 40 a7 91 3c 90 04 51 ba
       0.0011776959 0.006235867 0.017779946 -0.0007973397
000130 1d b2 bb bc 8f de a8 39 38 ce c2 bc bf 02 88 bc
       -0.02291208 0.00032209276 -0.023779973 -0.016602872
000140 04 5c 91 3a 1d 2d ba 3c 45 07 4f 3c 64 fd 7f bc
       0.0011090045 0.02272659 0.012636011 -0.015624378
000150 c1 88 a3 3c ae c4 bf bc e3 ef e5 3b a4 b6 0a bc
       0.01996267 -0.023409214 0.007017122 -0.0084663965
000160 5a eb ee bb 23 d8 f5 3c 57 4d b5 3c 66 c2 8e 3c
       -0.0072912397 0.030010289 0.022131605 0.01742668
000170 5a d0 8d 3c f3 74 e1 bc ea 8e 79 bc 2f f5 cc 3c
       0.017311264 -0.027521586 -0.015231827 0.025019256
000180 a5 aa 09 bd 17 75 09 bd 29 90 e0 bc 91 f3 52 bb
       -0.033610005 -0.03355893 -0.02741249 -0.0032188634
000190 d6 83 9c bc 0e c8 b1 3c a2 9b 2a 3d b9 dc f0 bb
       -0.019105833 0.021701839 0.04165233 -0.007350531
0001a0 cd bc fe bb f9 24 96 3a 9a a2 67 3c 66 55 8b bc
       -0.0077739717 0.001145511 0.014137888 -0.017008495
0001b0 f6 b0 ac bc da 73 97 bc 3d 4c 1c 3d 1b e0 a2 bc
       -0.021080475 -0.01848786 0.038158644 -0.019882252
0001c0 34 95 de bc 3d d9 7c 3c 1c 5b b6 bc 69 f5 ee bc
       -0.027170755 0.015432653 -0.022260241 -0.029169755
0001d0 ac c7 8d 3c 6a 08 f1 3c 88 3d ee 3c 8e 28 52 bc
       0.017307125 0.029422957 0.029082075 -0.012827052
0001e0 89 83 e6 bc a5 7c c3 3c b2 5b 06 bd fe 50 65 3c
       -0.028138893 0.023863146 -0.03280229 0.013996361
0001f0 ff 94 ad 3c ba f9 fe bc db e8 65 bc 55 50 e6 bc
       0.021189211 -0.031124938 -0.014032568 -0.028114477
000200 52 7b 73 3c 93 57 4e bc 28 8f 21 bc 31 13 01 3d
       0.014860945 -0.0125941215 -0.009860791 0.031512443
000210 61 5c 0b 3d ed e6 16 bc 0f fe 68 bc 9b df 9e 3c
       0.034023646 -0.00921033 -0.014220729 0.019393733
000220 6c 3f d7 bc 02 e7 a0 bc 61 a3 15 bd 2f 67 5c bc
       -0.02627536 -0.019641403 -0.036532763 -0.013452335
000230 59 55 f3 3c 56 d8 ad bc 06 9f 90 3c 6c 48 b2 3b
       0.029703783 -0.021221321 0.017653953 0.0054407623
000240 5f 26 ba 3c 16 2d b0 bc 4a f7 d0 bc 05 1a 8e bc
       0.022723375 -0.021505874 -0.025508542 -0.017346391
000250 73 45 fc 3b 2e 1e c5 bc 28 8c 0a bd 4c 83 dc bb
       0.0076987087 -0.024062242 -0.03382507 -0.006729519
000260 c0 03 dc 3c 47 ce a0 3c d5 f2 0b 3c 18 c7 8e 3c
       0.026857257 0.01962961 0.008541782 0.01742892
000270 ce d2 b6 3c 45 a8 f9 3c a9 c3 b9 bc 9a 39 91 bc
       0.022317316 0.030475745 -0.022676306 -0.017727662
000280 90 1a aa 3c 96 1f 7e 3c 7f cc 9a bc 65 f0 37 bc
       0.02076462 0.01551046 -0.01889634 -0.011226748
000290 5e 3f f8 3c 86 f1 c8 3c fc 27 ee bc 5d 3f 7d bc
       0.030303653 0.02452923 -0.0290718 -0.0154570015
0002a0 b4 0b 63 3c 1e c2 b9 ba 3b a3 9c 3c 39 c8 22 3c
       0.013857771 -0.0014172231 0.019120803 0.009935432
0002b0 6e 56 48 bc d8 c2 ac bc e5 5e 8f 3c 9b 49 ab 3c
       -0.012227638 -0.021089002 0.017501304 0.020909121
0002c0 00 8c 94 bc bb 11 d7 bc 44 d0 e1 3c 0a d7 00 bc
       -0.018133163 -0.026253572 0.02756513 -0.007863769
0002d0 dd 1e 79 bb d3 e5 79 3a af 3d 9c bc 4d e6 b6 3c
       -0.003801278 0.00095328427 -0.019072382 0.022326613
0002e0 83 37 01 bd c4 5c 7c 3c 51 3e 9c bc 0e c1 c5 3c
       -0.03154708 0.015402976 -0.019072684 0.024139907
0002f0 a4 f7 77 bc e3 18 32 bc bb 16 8b bc 4d d9 7b 3c
       -0.015134726 -0.010870191 -0.016978612 0.015371633
000300 3c fd b8 3c b5 eb fe 3b 0a ef bf bc 14 3b c7 bb
       0.022581689 0.0077795633 -0.023429412 -0.0060800407
000310 d6 b8 af 3c e9 65 26 3c 0d 2c 9c bc 87 eb de 3c
       0.021450441 0.010156133 -0.019063974 0.027211918
000320 dc 0b c3 bc 4b 32 a1 3c 65 6c da 3c b3 b2 c8 3b
       -0.023809366 0.019677302 0.026663015 0.006124818
000330 d2 91 a0 3b ba b0 02 bd 79 c6 2a 3c ee fc 85 3c
       0.0049001956 -0.03190682 0.010423296 0.016355958
000340 16 64 be ba 5b 03 66 3c 10 c6 cf bc 1b 0c c6 3b
       -0.0014525678 0.014038886 -0.025362998 0.0060439236
000350 81 3c 06 bd 7b 49 30 bc 15 e3 22 3c f8 8e 7f bc
       -0.032772545 -0.010759707 0.009941836 -0.015598051
000360 6e 21 12 3c 2a 37 40 bc 02 fe c8 3c 7b 59 d7 3c
       0.008919103 -0.011731902 0.024535183 0.026287785
000370 b5 5b 08 3d da 93 a7 bb d3 64 e6 3c d1 28 34 bd
       0.033290584 -0.005114061 0.028124249 -0.043984238
000380 e9 6b 87 bc 86 31 6c 3c 68 3e 89 3a 2c 42 88 3c
       -0.016530948 0.014416104 0.0010470869 0.016633116
000390 26 2b be bc d0 17 9a bc 77 49 e8 3c 6e 20 de bc
       -0.023213934 -0.018810183 0.028355343 -0.027115073
0003a0 ad ac cc 3c 2a 64 00 bc 26 d7 bc bc 0a d8 69 3c
       0.024984682 -0.007836381 -0.02305181 0.014272699
0003b0 ba d3 a5 bc 57 1b e8 bc e1 95 15 bc 8c 09 0e 3c
       -0.02024256 -0.02833335 -0.009129972 0.008669268
0003c0 48 0e 21 bc f3 a8 97 bc 36 b9 43 3b 51 b7 a6 3c
       -0.009830065 -0.018513178 0.0029865033 0.020351084
0003d0 a7 97 cb bc 9f 25 2d 3c 98 23 be 3c f9 af c7 3c
       -0.024852587 0.010568052 0.023210332 0.024375902
0003e0 5d 39 a7 bc 22 ec 12 3d 7d dc 79 bc 36 d9 fd bc
       -0.020413095 0.035869725 -0.015250322 -0.030987363
0003f0 df bd 25 bd fd 26 97 bc 81 2c 46 3c 98 70 30 3c
       -0.04046428 -0.018451208 0.0120955715 0.010769032

mlp_extractor.value_net.2.weight f4 [256, 256]
000000 c1 05 bf 3b 1a 1c b2 bd d0 95 6f bd 11 d8 a9 3c
       0.0058295433 -0.08696766 -0.05849248 0.020732911
000010 0d d8 fe bc 05 57 d7 bd dc c7 25 3e 67 0a b0 3c
       -0.03110888 -0.105146445 0.16189522 0.021489335
000020 a2 7b 0f 3e d4 97 1c be 29 00 23 be 87 29 f5 3d
       0.14012006 -0.15292293 -0.1591803 0.11970811
000030 43 ae 24 3d de 9d 8b bd eb f3 42 bd 5f df 7b bd
       0.04020525 -0.0681722 -0.0475959 -0.06149232
000040 18 48 90 bd c8 66 33 3e eb 49 5e bc 2e 0e 7c bc
       -0.07045001 0.17519677 -0.013567428 -0.01538424
000050 68 ba 10 3e 00 a1 14 be 1f 28 51 3d a6 aa 8f 3d
       0.14133608 -0.14514542 0.051063653 0.070149705
000060 a7 2e 67 3d 85 ba 13 be 56 77 ad bd fa ba 64 bd
       0.056440976 -0.1442662 -0.08470027 -0.055842377
000070 d4 3d a0 bd 30 89 9e bd de cd c7 3d b6 0d b7 bd
       -0.07824293 -0.0774101 0.09756063 -0.08938162
000080 b7 52 f8 bd a4 a6 0f bd 3b 46 bf bd 7d e4 36 3e
       -0.121251516 -0.03507103 -0.09339567 0.17860599
000090 b5 a5 95 bd ec a7 7f bc 4c 93 53 ba 6d bb a1 3c
       -0.07306997 -0.015604001 -0.000807096 0.019742692
0000a0 7e 68 01 bc 53 ba ad 3d 9a 61 54 3e 98 d0 f2 bd
       -0.007898448 0.08482804 0.20740357 -0.11856192
0000b0 40 0b 57 bc c9 a7 91 3c 98 06 34 3d 72 30 16 38
       -0.013125241 0.017780202 0.0439516 3.5807905e-05
0000c0 55 54 c9 bd 4b 15 89 3d 9b 9c 09 3d 6d 8b 44 3d
       -0.09830538 0.066935144 0.033596616 0.04798453
0000d0 6d d1 fe bd 16 ba 63 3d 46 d5 a3 bd 1d a9 3c bc
       -0.124422885 0.055597387 -0.07999663 -0.011514929
0000e0 b9 a8 40 3d 01 25 b5 3d 25 19 80 3d 11 f2 1e 3e
       0.047035906 0.088449486 0.06254796 0.15522029
0000f0 ec 82 1d 3d da c0 46 bd ff 51 88 bd e4 48 54 39
       0.038454935 -0.04852376 -0.066562645 0.0002024505
000100 9f e7 a0 bd c8 5e e0 bd ed 9c 36 3e 88 f5 d9 3d
       -0.07856678 -0.10955578 0.178333 0.106425345
000110 dc 59 1a bd 84 41 da 3d dd ca 9f 3d 79 6c 44 bc
       -0.037683353 0.10657027 0.07802365 -0.0119887525
000120 2b e9 13 3e d4 07 5e bd 4c 3e 96 bd f5 a3 17 3e
       0.14444415 -0.054206684 -0.07336101 0.14808638
000130 19 98 b0 3c c6 40 40 3c 4e 10 cd 3d 75 0e bf 3d
       0.0215569 0.011734193 0.100128755 0.09328929
000140 c7 bf 9d bd 72 af 78 3d 65 88 55 bd 20 fb c5 3d
       -0.07702594 0.060714193 -0.05213203 0.09667039
000150 2f fa a2 3d f5 88 e2 3d 13 8c 21 be e7 ac 9c 3d
       0.07957875 0.11061279 -0.1577609 0.07650166
000160 00 d7 13 3d 79 8d 99 3d d8 64 95 bd 6a 2e cf bd
       0.03609371 0.07497687 -0.07294625 -0.10116275
000170 9b b7 41 be b4 bd ab 3d 51 c3 86 3e 97 1c 81 3d
       -0.18917696 0.083857924 0.2632089 0.06304281
000180 97 ea d7 3d 10 52 11 be 7f e1 2b bd 64 93 c9 3d
       0.10542791 -0.1419146 -0.041963097 0.09842566
000190 fd 66 e0 3c 5d d2 02 3e c5 dc c1 bc cc ff 4c bc
       0.027392859 0.1277556 -0.023664841 -0.012512159
0001a0 eb 4b 97 3c c5 a9 ad bc 4f 09 1b 3d 8f 1f a6 bd
       0.018468818 -0.021199116 0.037850674 -0.08111488
0001b0 fc ae 68 bc c6 0f ef 3c 85 e1 da 3d bf d5 61 3d
       -0.014201876 0.029182326 0.10687546 0.055135485
0001c0 46 d5 77 3c d9 fc 27 bc 8c c1 9b 3d 78 9f ad 3a
       0.015126532 -0.010253155 0.076052755 0.0013246378
0001d0 f4 1e 7e be 34 a6 6c be 2e ae 85 3d ab ba 1c 3d
       -0.24816495 -0.23110276 0.06527363 0.038263958
0001e0 49 ec 51 3c f6 a7 0f bd 03 67 ea bc 97 a3 6a be
       0.012812682 -0.03507229 -0.028613573 -0.22913967
0001f0 75 df 9e 3d a9 0e 1e 3e 00 0d 83 3d 0a 79 c8 3d
       0.07757465 0.1543528 0.06398964 0.09788711
000200 2e 57 3c be 08 0c ab 3d 2a 51 04 be b8 58 1f be
       -0.18392631 0.08351904 -0.12921587 -0.15561187
000210 fc 5a eb bd 13 de 09 be 55 b9 a3 3b 64 10 da bc
       -0.11491963 -0.13463621 0.0049964585 -0.026619144
000220 85 55 5f 3c 91 4f 21 3c 24 30 38 be 91 1f 41 be
       0.013631229 0.00984563 -0.17987114 -0.18859698
000230 d8 88 e7 bb 23 a7 97 bd bf 2c 24 3e 24 5c d4 bc
       -0.0070658736 -0.07404926 0.16032694 -0.025922842
000240 d5 83 cc 3c bf d3 35 be 41 94 8c 3e a4 4e af bc
       0.024965206 -0.17756556 0.2745686 -0.021399803
000250 45 2b fe bd 58 e7 72 bd 17 9f 80 3d 20 b8 62 bd
       -0.12410597 -0.059302658 0.06280344 -0.055351377
000260 c7 ce 10 be 94 ab 96 3d a8 b2 2f 3e 6a f5 dc bd
       -0.1414138 0.07356945 0.17157996 -0.107889965
000270 de e5 39 bd f7 e9 c3 bc 18 cc 0e 3d 3e 14 b3 3d
       -0.045385234 -0.023915274 0.034862608 0.08744095
000280 46 3d 23 bd a7 fe 10 be a8 5a 06 3e e8 0a 6e bd
       -0.039853357 -0.14159642 0.1312052 -0.05811587
000290 aa a0 d2 3d aa 78 01 be 3d 13 74 3d 97 b9 b4 3d
       0.102845505 -0.12643686 0.05958866 0.08824461
0002a0 b3 f1 1b 3d 36 01 79 bd 64 a0 ea bc 73 21 ac 3d
       0.0380723 -0.06079217 -0.028640933 0.084048174
0002b0 44 61 8e bd 21 3d d1 3c a4 b6 f3 3c 13 4b e1 bd
       -0.06952146 0.025541844 0.029750176 -0.110006474
0002c0 e6 21 8c 3d c7 2e 25 be ad 93 1d bc 6d 18 1e 3d
       0.06842403 -0.16131125 -0.009617728 0.038597513
0002d0 bd 8e 02 be 46 e7 ba bd a1 f4 42 3e 7d 8c 71 bd
       -0.12749763 -0.09126143 0.19038631 -0.05897187
0002e0 f2 af cb 3d 4d d1 5b bd 02 5c 97 3d 4a a0 15 be
       0.09945668 -0.0536664 0.07390596 -0.14611927
0002f0 39 c3 25 3e 12 33 4d bd 3e f1 bc 3d 95 fb 8a 3c
       0.16187753 -0.050097533 0.09225701 0.016965667
000300 bc 87 9b bd 1a 6d 03 3d 0a 0c e2 bc c5 46 82 3d
       -0.07594249 0.03208647 -0.027593631 0.063611545
000310 b6 52 6f bd 04 d1 82 bd e5 b7 8d bd 2c f7 d7 3d
       -0.05842849 -0.06387523 -0.06919841 0.10545191
000320 24 86 98 bd 86 ca 5c 3d 78 b3 03 bd f0 48 50 be
       -0.0744746 0.05390408 -0.032153577 -0.20340323
000330 08 9a 38 3c 7e 9b 25 3d c6 b4 99 3c c9 bf 02 bc
       0.011267193 0.040431492 0.018762957 -0.007980295
000340 d4 22 f4 bc 9c 54 f1 bc 4b 75 32 3d d8 72 c1 bd
       -0.029801764 -0.02945929 0.04356889 -0.09445733
000350 5b 26 27 3d f0 6e 82 3c 09 e8 38 bd 1e cd d4 3c
       0.040808063 0.01592204 -0.04514316 0.025976714
000360 36 a8 fa bc 70 75 b0 bc d6 ac 58 3c e8 c8 5d bc
       -0.030597787 -0.021540374 0.013224801 -0.013536669
000370 02 38 6c be b9 c0 91 3d d7 03 a4 bc 2e 59 05 be
       -0.2306824 0.07116837 -0.020021362 -0.130223
000380 4a 53 f5 bd a4 bf 7a 3d 22 48 bd 3c 8d 82 98 bb
       -0.11978777 0.06121792 0.023105685 -0.0046542347
000390 8d a1 e7 bb c4 aa 11 3e 52 ca 05 be 88 58 6f 3d
       -0.007068819 0.14225298 -0.1306546 0.05843404
0003a0 51 43 03 be 1d 9a 01 3e 0c 41 90 3d 48 f3 1f bd
       -0.12818648 0.12656446 0.07043657 -0.03905037
0003b0 37 88 70 3c cf 16 ef bb 12 51 43 bd 90 c6 2d bd
       0.014680914 -0.00729642 -0.047684737 -0.042425692
0003c0 e8 af 09 3e 19 e0 db bc c2 09 0c bc 3c 13 cb 3d
       0.13446009 -0.026840257 -0.008547248 0.09915778
0003d0 3f 7d 1b 3e 5e ae aa 3d f1 4b 08 be 48 4e ac bd
       0.15184496 0.08334039 -0.1331022 -0.084133685
0003e0 95 69 5a bc 80 d2 01 bb 25 36 ad 3d 0d b1 51 3d
       -0.013330837 -0.0019809306 0.08457593 0.05119424
0003f0 f5 7f dc 3d e1 cc d9 bd e3 1a fd bd 2b 67 e6 bc
       0.10766593 -0.10634781 -0.12358644 -0.028125366

mlp_extractor.value_net.2.bias f4 [256]
000000 82 c6 ca bc a6 29 d4 bc 60 ec a3 bc fc aa 50 bc
       -0.024752859 -0.025898766 -0.020010173 -0.012736078
000010 f9 85 37 3c 8a 46 73 3c 74 9a 72 bc ad 9e af 3c
       0.011201375 0.014848361 -0.014807332 0.021437967
000020 ed f3 5a 3c ec eb b2 3c a4 98 ca 3c 2c ed 84 bc
       0.0133638205 0.021841012 0.024730988 -0.016226374
000030 d4 16 b3 bc 41 61 8b 3c 10 70 a0 bc 16 30 a7 3c
       -0.021861471 0.017014148 -0.019584686 0.020408671
000040 e6 25 a7 bc 53 ee 6b bc 3e 98 37 3c 37 df ab bc
       -0.020403814 -0.014400083 0.011205731 -0.02098046
000050 03 08 32 3c bb ef d5 bc a9 b2 84 3c 96 41 00 bc
       0.010866168 -0.026115289 0.016198473 -0.007828137
000060 4a d5 9c bc 70 e5 bd bc e6 45 c6 bc ae 5e e9 3c
       -0.019144673 -0.023180693 -0.024203252 0.02848753
000070 36 ab b9 bc 3f 63 16 bc 23 6f 80 bc ef 8d 87 bc
       -0.022664648 -0.009178936 -0.015677994 -0.016547171
000080 e0 9a a5 3b 42 42 cf 3c ff a2 bd 3c 5f 9c be bc
       0.005053863 0.025300149 0.023149012 -0.023267923
000090 50 32 7c 3c 98 43 f6 bb f4 7e e7 bc 31 79 8c 3b
       0.015392855 -0.007515382 -0.028258778 0.004286908
0000a0 c6 2f ad bc 9d 64 b5 3c cf 20 75 bc 73 fd 89 3c
       -0.021140944 0.022142703 -0.014961435 0.016844487
0000b0 f3 f9 03 bc 97 9f 5c 3c a9 f5 94 bc eb 6b 9a bc
       -0.008055198 0.013465784 -0.018183546 -0.018850287
0000c0 a3 04 a0 3c 6f b7 4d 3c 1b ed b3 3c 96 7f b4 3c
       0.019533461 0.012555941 0.021963647 0.022033494
0000d0 6c 40 8e 3c 0e 16 2a 3b ae 6d 90 3c bb 2e 90 3c
       0.017364703 0.0025953087 0.017630424 0.017600408
0000e0 b2 04 4b bc b0 e5 a6 bc cd 06 b2 3c e4 ab ab bc
       -0.012391256 -0.020373195 0.021731758 -0.020955987
0000f0 de e3 47 bc ab 8b e1 3c 3a b0 eb bc 2e 10 80 3c
       -0.012200324 0.02753242 -0.028770555 0.015632715
000100 1c cd 6d bc cc 35 98 3c 00 5c 8d bc 59 62 6d 3c
       -0.014514234 0.01858034 -0.017255783 0.01448878
000110 dc a9 b4 bc fe 78 f5 3c 82 45 85 3c 36 17 b0 bc
       -0.022053652 0.02996492 0.016268495 -0.021495443
000120 cb 23 ac bc d3 da 75 3c 08 0e cc 3c 54 86 a3 3c
       -0.021013161 0.015005785 0.024909034 0.019961514
000130 94 b6 a9 bc 6a 20 a9 bc ff d0 de 3c 4d 98 2f 3c
       -0.020716943 -0.020645339 0.027199266 0.010717464
000140 f2 c9 9e 3c 8f 37 b0 3c 5a b4 9b 3c 0c a9 ac bc
       0.019383404 0.021510867 0.019006897 -0.021076702
000150 46 62 88 bc 03 6d bd 3c 27 ef 22 bc 6a a0 96 bc
       -0.016648423 0.02312327 -0.009944714 -0.018387038
000160 08 47 6b bc b5 c7 51 3c d6 47 ee 3c e8 a5 1a 3c
       -0.014360197 0.0128039615 0.029086988 0.009438969
000170 74 de b8 bc 4d 67 e6 bc fa 0b b0 3c 1d 71 ad bc
       -0.022567011 -0.02812543 0.021490086 -0.0211721
000180 1c f9 9f bc 84 80 93 bc 1a fd 95 3c 49 83 95 bc
       -0.019527964 -0.018005617 0.018309165 -0.018251078
000190 d4 77 b6 bc c8 bb 06 3c b0 a3 8b bc 5f f5 c6 bc
       -0.022273935 0.0082234815 -0.017045826 -0.024286924
0001a0 81 b3 e4 3c 1d db a4 3c c5 1a 73 3c d9 31 87 3c
       0.027917625 0.020124013 0.014837925 0.016503261
0001b0 91 63 a4 bc 9c c5 94 3c fd b1 95 3c 28 05 2f bc
       -0.020067008 0.018160634 0.018273348 -0.010682382
0001c0 aa ac 3d 3c bf da 91 bc 19 44 7f bc e3 e2 d9 3c
       0.011576811 -0.017804502 -0.015580201 0.026597446
0001d0 ac 43 d5 3c 05 7d b8 3c 74 89 93 bc e4 c2 a6 3b
       0.026033245 0.022520551 -0.018009879 0.0050891507
0001e0 47 8d 84 bc 53 4f b6 3c 43 07 d3 3c 3f 1b 62 bc
       -0.016180648 0.022254622 0.025760299 -0.013800441
0001f0 fc e4 ec bb 4d 4f a5 bc 8a 99 6c bc ca 24 af 3c
       -0.0072294455 -0.020179415 -0.014440903 0.021379847
000200 c2 3c 90 3c 5e 60 68 3c 5b f2 76 bc c9 ea 79 bc
       0.017607097 0.014183132 -0.0150724305 -0.015253731
000210 70 00 b7 bc f3 46 ca 3c ac 2e a5 3c ba 93 01 3d
       -0.022339076 0.024692034 0.020163856 0.031635024
000220 66 85 c9 3c 51 46 b7 bc 3b 94 d8 3c 95 a0 7e bc
       0.024599742 -0.022372397 0.02643787 -0.015541215
000230 b9 dd c4 bc d7 8b b5 3c 53 23 c4 3c 06 d6 70 3c
       -0.024031507 0.022161407 0.023942625 0.014699465
000240 3a 30 64 bc c7 4a d4 bc bf 47 fd bc 49 11 8c bc
       -0.013927514 -0.025914563 -0.030918 -0.017098086
000250 d3 79 c5 bc 60 77 f7 3b 4b bd 79 bb 87 68 5b 3c
       -0.024105942 0.0075520724 -0.0038107212 0.0133916205
000260 9d b4 db 3c 7b a7 64 3c 8d 52 7e 3c 33 2b fa 3b
       0.026819522 0.013955946 0.015522611 0.0076345443
000270 0f 6e d9 bc 85 25 82 3c a5 d0 ba bc de f3 70 3c
       -0.026541738 0.015887031 -0.022804568 0.01470658
000280 39 9f 89 3c 65 60 b5 bc 3b cd 8b 3c 28 23 ae 3c
       0.016799556 -0.022140691 0.017065635 0.021256998
000290 ab a0 2c 3c d1 bd b4 bc e5 09 94 3c b4 01 c9 bc
       0.010536353 -0.022063168 0.018071124 -0.024536945
0002a0 3d 4e e6 3c 5b 67 af bc 54 9d a7 bc da 8c 2f bc
       0.028113479 -0.021411588 -0.020460762 -0.010714734
0002b0 f6 fc 84 bc 1c 0e 8e 3c ac 58 be 3c 71 36 c6 3c
       -0.016233902 0.017340712 0.023235641 0.024195882
0002c0 83 e0 95 3c 6b 10 a7 3c cd a4 9c 3c 3b bb a5 3c
       0.018295532 0.02039357 0.019121552 0.02023088
0002d0 97 77 cd bc d0 72 27 3c d5 b7 8f bc 0c 50 95 bc
       -0.025081439 0.0102202445 -0.017543713 -0.018226646
0002e0 58 1a 9f bc f2 03 71 3c 5b 25 9c bc 8b e3 cd 3c
       -0.019421741 0.014710413 -0.019060781 0.025132915
0002f0 aa 03 84 bc fc c1 95 3c b9 b2 17 3c 71 b3 7d 3c
       -0.016115028 0.018280976 0.009258919 0.015484677
000300 97 27 69 3b b2 5c e9 3c c2 12 70 bc c2 3c b8 bc
       0.0035576576 0.028486583 -0.01465291 -0.02248991
000310 21 66 a6 bc bd d5 2a 3c 19 fc 1c 3c 14 36 9c 3c
       -0.02031237 0.010426936 0.009581589 0.019068755
000320 f7 e0 3a bb 56 52 7c 3c 75 ea dd bc d1 6d 36 3c
       -0.0028515437 0.01540049 -0.027089337 0.011134581
000330 d2 c9 ba bc 47 5b 02 bc 74 8f 37 3c f3 db 82 3c
       -0.022801314 -0.0079563325 0.0112036355 0.01597402
000340 a8 8d 6d bc c4 3e 7e 3c d3 d8 c6 bc b4 6d 91 3c
       -0.0144991055 0.015517894 -0.024273312 0.017752506
000350 64 98 ac 3c 58 6f d9 bc 7b ef 2a bc e1 17 b5 3c
       0.02106876 -0.02654235 -0.010433073 0.022106113
000360 c8 f8 1b bd f3 c4 46 3c 5c c5 14 bd 1d cd b6 3c
       -0.038079053 0.012131917 -0.03632103 0.022314603
000370 1d 8c 6c 3c 6b 47 96 bc 75 b8 9b 3c e3 97 87 3c
       0.0144377025 -0.018344602 0.019008854 0.016551917
000380 76 f6 50 bc 95 8c be 3b 60 82 0c 3c a9 5e e0 3c
       -0.012754073 0.0058150985 0.008576006 0.027388887
000390 e9 bf 06 bc 09 1b 6e bc a3 46 ad 3c 4b f2 f8 3b
       -0.008224466 -0.014532813 0.021151846 0.007597243
0003a0 ae cd 84 bc 49 48 a0 bc 5b 91 b6 bc 64 83 87 bc
       -0.016211357 -0.019565718 -0.022286108 -0.016542144
0003b0 97 94 aa bc 2f aa 9b 3c d8 e5 6a bc 30 ae 0e 3c
       -0.020822806 0.019002048 -0.014337026 0.008708522
0003c0 7c 87 d7 bc d8 0d ab 3c 8c a4 10 3c e9 00 69 3c
       -0.026309721 0.020880625 0.0088282935 0.014221408
0003d0 fa 02 54 3c b8 b2 8b bc 1a e7 b2 bc 25 a7 4a 3c
       0.012940163 -0.017052993 -0.021838713 0.012368952
0003e0 1f ca 80 3c 97 27 b2 bc d9 90 9e bc 83 57 92 bc
       0.015721379 -0.021747394 -0.019356178 -0.017863994
0003f0 28 83 89 3c 0a 80 49 3c 64 dc c7 3c 7b 2e 90 bc
       0.016786173 0.012298593 0.024397083 -0.017600289

action_net.weight f4 [2, 16]
000000 7c bc ab 3b db aa 17 3c cf ad 29 3c ad ae 44 3c
       0.005240975 0.009257044 0.010356381 0.012004537
000010 a0 3e 0a bc 15 a3 45 3c 6c 25 6e bc cb 96 16 3d
       -0.0084377825 0.012062808 -0.014535289 0.0367649
000020 f0 13 94 3b 53 97 cb 3c f1 ed 6e ba 03 93 cf bb
       0.0045189783 0.02485243 -0.00091144355 -0.006334664
000030 c4 9f 9d bc cb 50 be 3c d0 0e c9 bc 97 8e 26 3c
       -0.019241221 0.023231884 -0.024543196 0.010165832
000040 77 0e d1 ba c2 89 00 bc e8 5b f6 bb 7e 3a 87 bc
       -0.0015949745 -0.007845344 -0.0075182803 -0.016507383
000050 36 8a 39 3c db 9b a1 bc 70 98 8b 3c 2e 00 20 bd
       0.011324456 -0.019727638 0.017040461 -0.03906267
000060 42 f8 d5 bb 81 c6 9f bc 33 e3 32 39 29 b3 a0 3b
       -0.006529839 -0.019503834 0.00017060041 0.00490417
000070 af 33 6e 3c 59 17 9a bc bf 79 d0 3c f7 bb 24 bc
       0.0145386895 -0.018809961 0.025448678 -0.01005458

action_net.bias f4 [2]
000000 d0 ce 82 3b d3 ce 82 bb
       0.003991939 -0.0039919405

value_net.weight f4 [1, 256]
000000 6e fb 10 3e 20 17 cd 3d d0 0e 17 3e 8d 8b f2 3d
       0.14158413 0.10014176 0.14751744 0.118430234
000010 bf 3d 05 bd 67 80 e1 bd e9 f0 b9 3d 3c 4b 23 be
       -0.03252959 -0.11010819 0.09079153 -0.15946668
000020 e6 61 0c be b9 dd 4f bd 45 d3 c6 bd 5a 11 83 3d
       -0.1370922 -0.05074856 -0.09708265 0.06399794
000030 c5 52 ee 3d 74 ed 58 bd dd c4 11 3e 2f 7e da bd
       0.11636881 -0.052960828 0.14235254 -0.10668599
000040 a6 59 93 3d 1d 0b 31 3d 35 5b 23 bd 7f 29 a9 3d
       0.071948335 0.04322349 -0.039881904 0.08259868
000050 85 54 33 be 95 0c bf 3d 86 e1 20 be 22 ae f0 3d
       -0.1751271 0.09328572 -0.1571103 0.11751963
000060 e6 0e 3d 3e ee bb 9a 3d c3 2a ab 3d f7 6c c8 bd
       0.18462715 0.07555376 0.083577655 -0.097864084
000070 2a 4d e3 3d 0c d9 72 3d f5 66 68 3e c1 a8 8a 3d
       0.11098702 0.059289023 0.22695525 0.067704685
000080 7a f3 34 bd da 45 46 be a8 f4 96 bd c9 61 b6 3d
       -0.04417751 -0.19362584 -0.07370883 0.0890537
000090 4d 03 bd bd 8f 87 3a 3d 21 31 29 3e 6d ef 00 be
       -0.09229145 0.045539435 0.16522647 -0.12591334
0000a0 a4 04 06 3e e2 c6 cd bd b0 59 04 3e b6 6f 0c be
       0.13087708 -0.100476995 0.12924838 -0.1371449
0000b0 b2 e4 08 bd ba 28 1e bd 21 4b 5d 3d da e3 d0 3d
       -0.033421226 -0.03861306 0.054026727 0.10199709
0000c0 46 23 e4 bd 68 c6 6a bd f4 2d 4d be 8c 64 cc bd
       -0.111395404 -0.05731812 -0.20037061 -0.09980115
0000d0 62 b8 1a be 26 09 0c bd 73 23 ae bd 65 dd 92 bd
       -0.15109399 -0.034188412 -0.08502855 -0.07171134
0000e0 fb 91 f5 3d 44 94 de 3d b0 94 b8 bd 08 ef 85 3d
       0.11990734 0.10868123 -0.09012735 0.06539732
0000f0 0e 4c 97 3d 62 79 cc bd dd a8 f6 3d 0f 1e ec bd
       0.07387553 -0.099840894 0.12043927 -0.11529171
000100 e9 99 5e 3e c3 12 a9 bd ad 0f 35 3e f4 e6 09 be
       0.217384 -0.08255532 0.17681761 -0.13467008
000110 ab 2d 4f 3e 4b f8 33 be fc e8 1e be 4e 42 4c 3e
       0.20232265 -0.17575185 -0.15518564 0.19947168
000120 fb 16 e4 3d a7 c3 bd bd ae eb 1e be dd 15 11 be
       0.11137196 -0.09265833 -0.15519592 -0.14168496
000130 e4 da 2e 3e 37 3b 05 3e 3f 7e e5 bd 3c 06 29 be
       0.17075688 0.1301087 -0.1120572 -0.16506284
000140 b9 ff b7 bd 32 08 30 be d9 fe 30 be 41 8a da 3d
       -0.08984322 -0.17190626 -0.17284717 0.10670901
000150 3f 9e 27 3e 09 53 2a be 27 f6 ee 3d 2e f9 25 3e
       0.1636896 -0.16633238 0.116680436 0.16208336
000160 84 8f 2c 3e 37 29 e8 bd 49 41 86 bd 99 9e 4a 3d
       0.16851622 -0.11335986 -0.06555421 0.049467657
000170 cc ab a2 3d e8 ca 80 3d 53 7f cc bd b3 69 ef 3d
       0.07942924 0.06288701 -0.09985223 0.116900824
000180 d8 77 38 3e 6b ee 87 3d c0 24 d5 bd 56 01 33 3e
       0.18014467 0.066372715 -0.104074 0.17480978
000190 81 41 b2 3d e7 f8 45 bd a4 50 52 3e f0 fa 01 3e
       0.087039 -0.048333075 0.20538574 0.12693381
0001a0 75 3c 80 bd 27 35 d3 bd 9f 2b 2d be 2a 1f f1 bd
       -0.06261531 -0.103128724 -0.16911171 -0.11773522
0001b0 3d 7d d9 3d fc 0b b5 bd 20 77 b2 bd 62 1d ae 3d
       0.106195904 -0.088401765 -0.087141275 0.08501698
0001c0 44 f0 7a bd 1b 36 da 3d 9d 6a d3 3d 21 47 24 be
       -0.06126429 0.10654851 0.10323069 -0.16042759
0001d0 eb d9 a5 bd 79 46 1d be 4d 78 23 3e 20 0a ea bc
       -0.08098205 -0.15358914 0.1596386 -0.028569281
0001e0 92 48 ca 3d 1e 48 0c be 5e c6 c7 bd ef 44 1c 3e
       0.09877123 -0.13699386 -0.097546324 0.15260671
0001f0 9f d4 95 3d 0c 1c cc 3d af 06 73 3d 64 c7 95 be
       0.07315945 0.09966287 0.059332546 -0.29253685
000200 b5 33 2c be 36 cb 8a bd dc a5 e3 3d c2 e4 77 3e
       -0.168166 -0.06777041 0.111156195 0.24208358
000210 07 34 04 3e 6c d2 00 be df 3e 85 bd 5d 5c da bd
       0.12910472 -0.1258027 -0.06506132 -0.10662148
000220 87 20 dc bd 18 00 3b 3e c9 18 c5 bd 2d 2d e4 3d
       -0.107483916 0.18261755 -0.09623868 0.11141429
000230 6b dd a7 3d 8b 96 ed bd 17 99 26 be a8 cd e4 bd
       0.08196529 -0.116009794 -0.16269337 -0.11172038
000240 2e 3c c0 3d fb 45 b4 3d 3f 4a cc 3d 76 3b 17 3e
       0.09386478 0.0880241 0.09975099 0.14768776
000250 9c 5e af 3d 99 b1 90 3d f8 23 45 bd 15 24 c5 bd
       0.08562967 0.07065124 -0.048130006 -0.09626023
000260 6c 70 ff bd 0a ea c2 bd 04 c7 12 be ae 6d 4c bd
       -0.12472615 -0.09517296 -0.14333731 -0.049909286
000270 71 aa c4 3d 86 83 85 bd 18 a3 ad 3d 0b 92 fe bd
       0.096028216 -0.06519227 0.08478373 -0.12430199
000280 39 cd 7a bd 3f b3 c0 3d fe e9 a5 bd f7 2f a9 bd
       -0.06123087 0.094091885 -0.08101271 -0.08261102
000290 8c da a4 bd f0 c6 1c 3e b4 17 2f be fb b1 94 3d
       -0.08049497 0.15310264 -0.17098886 0.072605096
0002a0 e8 e9 14 be 76 8f 10 3e 28 3b 4b 3e 07 98 cf 3d
       -0.14542353 0.14117226 0.19846785 0.10136419
0002b0 58 3c e2 3d 96 3d 74 be 65 a4 33 be c2 c6 2d be
       0.11046666 -0.23851618 -0.1754318 -0.16970351
0002c0 01 8a 18 be b3 b5 b3 bd 63 3c d7 bd 0b 01 e6 bd
       -0.14896394 -0.08774891 -0.10509565 -0.11230668
0002d0 65 0a 21 3e f3 71 18 be ce 5c d6 3d e9 5d c1 3d
       0.15726621 -0.14887218 0.1046692 0.0944174
0002e0 8f bc 1b 3e ba 88 0f be 14 4d e0 3d 1a 8b 47 be
       0.15208648 -0.14017001 0.109522015 -0.19486657
0002f0 2e da b9 3d 9a 02 0f be db c1 bd bd 7c cb 1f be
       0.090748176 -0.13965836 -0.092654906 -0.15604967
000300 ba 5d e6 bd ad f4 16 be d2 16 c4 3d 16 e4 50 3e
       -0.11248346 -0.14741774 0.09574665 0.20399508
000310 1d e4 b6 3d 0a 68 5e bd fc 0c 87 bd 5e 22 81 bd
       0.08930228 -0.054298438 -0.065942734 -0.06305383
000320 ad 10 2a bc 6e 30 f6 bd d1 c1 f0 3d 1e 23 e3 bd
       -0.010379952 -0.12020956 0.117557175 -0.110906824
000330 da 8a c4 3d 8e 97 3c 3d a7 03 6a bd ca c9 07 be
       0.09596796 0.04604297 -0.05713239 -0.1326057
000340 c6 b6 86 3d 70 23 f7 bd d9 b5 76 3e 36 3b 8a bd
       0.0657783 -0.12067306 0.24092807 -0.06749575
000350 08 ee 44 be 50 a8 de 3d bd 13 b7 3d ec 6b 9e bd
       -0.19231427 0.10871947 0.08939312 -0.07735428
000360 84 4a 34 bd 1a ef 19 be fd 3d a6 3d 87 c6 20 be
       -0.044016376 -0.15032616 0.08117292 -0.15700732
000370 49 d2 d9 bd e3 15 f8 3d 47 da f9 bd b3 a2 f5 bd
       -0.10635812 0.121135496 -0.12199836 -0.11993923
000380 d4 78 73 3d 58 3d 5f bd 8f 3d 00 be 66 d5 a1 bd
       0.059441403 -0.05450186 -0.12523483 -0.07902031
000390 77 20 ae 3d d7 23 95 3d a5 68 3a be 1b c2 3e bd
       0.08502286 0.072822265 -0.18203981 -0.046571832
0003a0 e3 21 2c 3e e4 25 0f 3e 48 90 05 3e 1e d5 24 3e
       0.16809802 0.13979298 0.1304332 0.16096923
0003b0 dd 4e 3d 3e 0e ca 00 be e0 3d 90 3d a4 1d df bd
       0.18487115 -0.12577078 0.07043052 -0.108943254
0003c0 40 f8 ff 3d 49 1d fe bd fd 36 b2 bd 86 f7 f3 bd
       0.12498522 -0.124079295 -0.087018944 -0.11912446
0003d0 e7 c7 75 bd 24 61 14 3e ec d6 2f 3e 29 fa 28 be
       -0.060005095 0.14490181 0.1717183 -0.16501679
0003e0 18 03 0c be 79 4f 16 3e c8 03 04 3e 9a 0a 18 3e
       -0.13673055 0.14678754 0.12892067 0.14847794
0003f0 b5 0f ba bd 01 40 ed bd b3 c4 dc bd d7 b0 e0 3d
       -0.09085027 -0.115844734 -0.10779705 0.109712295
